profile2/wpp2/optimization_guide_model_store/20/E6DC4029A1E4B4C1/118846093016C683/model.tflite (tflite, 64852 bytes, 5 tensors)

arith.constant f4 [1, 64]
00000000: 3c3e 3cbe c99b 08be 1e34 99be ad17 a33e
00000010: eafe ecbc 29d5 cd3e 0cd7 e7bd 98f0 71be
00000020: c651 99be 4e88 353e 95c0 74be 86a6 a33e
00000030: cc71 9bbe 2148 223d b4be 8cbe ac0c 7dbe
00000040: 9146 a43e c4eb 103e b7d6 42be a414 1fbd
00000050: a8e7 b4bd 1496 4e3e 2228 7dbe 66b2 66be
00000060: 1758 83be cc69 1dbe 7b92 9f3e 13aa 743e
00000070: 4426 8a3d c637 d43e 9583 3ebe 14c1 22be
00000080: 96b1 9f3e a1e3 9a3e 4ba3 06be a9e0 003e
00000090: e71f 50be b0e6 3c3c 93dd 46bd 00ec 92bd
000000a0: 6fa0 bb3e 79c0 8e3e 6d9a 4f3e 5d9a 1e3e
000000b0: db06 bdbd fc2b 9a3e 1160 c7be 1762 683e
000000c0: 7c66 e33d cfbe 4d3d 4dd0 79be af35 a33e
000000d0: 78db 6bbe 725f a9be f3ad 81be b4a4 973e
000000e0: 68b0 53bd 9f6a 663e b63d 323e 373f 253e
000000f0: c583 673e dee0 963e 3b7e 4f3e b077 b93e
-0.18383116 -0.13340677 -0.29922575 0.31854 -0.028930146 0.4020169 -0.11320314 -0.23626935
-0.299452 0.17727777 -0.23901589 0.31962985 -0.30360258 0.03961957 -0.27489245 -0.24711865
0.32085088 0.14152437 -0.1902722 -0.038838044 -0.088332474 0.20174438 -0.2472234 -0.22528991
-0.25653145 -0.1537239 0.31166443 0.23893003 0.0674558 0.41448802 -0.18604882 -0.15893966
0.31190175 0.30251792 -0.13148229 0.12585701 -0.2032467 0.01152961 -0.048551153 -0.0717392
0.3664584 0.2788122 0.20273753 0.15488572 -0.09229823 0.30111682 -0.3894048 0.22693668
0.11103532 0.050230797 -0.24395867 0.31876895 -0.2303294 -0.33080631 -0.25328025 0.29617846
-0.051681906 0.2250161 0.17406353 0.16137396 0.2260886 0.29468435 0.20262997 0.36224127

arith.constant1 f4 [64, 128]
00000000: a946 e63d 64a7 09be 5317 91bd 064e 9e3b
00000010: 91e1 09be bf99 023e d061 dc3d 5d93 a13d
00000020: 4a00 38be 00f9 11be 7d91 01be 3a5e 193e
00000030: ebdd 2a3e 43ef c63b 42e4 19be 722f 2f3e
00000040: 2cec d9bd 6b32 ed3d 1986 363e 5d87 363c
00000050: f281 21be 65d2 34be 8660 f9bd 210a 0f3e
00000060: d7c5 c23d 3f49 2cbe ce24 30be dfb0 cfbd
00000070: 3f12 94bd 2c80 95bd 8e96 4e3e 6d16 af3d
00000080: d3f0 dc3c a1d2 71bd 2fc4 08be bc2f 363c
00000090: 68cb c0bd a6e1 b23d f0a0 3e3c bcfa 59bc
000000a0: 0376 ac3d 7213 67be 864d b6bc 2453 1ebe
000000b0: f93d 093e 97a7 b63c 3151 41bd 55fa fabd
000000c0: 83e8 a53d 5a67 93bd e37f f73d d9cf 893d
000000d0: 7b38 d9bd 4d33 09be 06c3 d93d 350a 393e
000000e0: d810 abbd c350 3fbd 22d6 d0bd d949 a73d
000000f0: 7dfb fd3d d847 38be 4c56 2f3d 60d9 13be
00000100: a0f5 c03c 6a84 e03d 4436 09be 512d 223d
00000110: 4dab 85bc 8dca ee3d 1beb f5bd 479f 9f3d
00000120: 3b2f bc3d fe31 0f3e 46f6 29bc 83e5 4fbd
00000130: 1447 483c 44aa bdbc 245b b0bd 9ec1 b5bd
00000140: 009e 20be 0bd9 0dbe d2a4 dc3d 804f 38bd
00000150: 4d38 1c3e d2b1 233e c94a 9abc 7ba3 c3bc
00000160: 7c13 bf3d 77b2 fb3d f95d 4ebd 41ed 12bc
00000170: 735c 32bd 5245 e5bc 6f7c ee3d 8f89 da3d
00000180: 333e 4b3d 894c 6d3d c7c4 17be f1c8 dfbd
00000190: 9ba4 a53d 0f25 ed3c 6052 823d 0829 38be
000001a0: 5127 98bd 2399 99bc d74e f73d f5be 13be
000001b0: d738 0e3e fae8 8b3d d9eb c83d fbc3 fb3d
000001c0: 7c24 0cbe d1aa 89bd bb7c e5bd 9fc7 e63c
000001d0: 6acb adbd 9723 b5bd c3f1 0bbd 69f5 4d3d
000001e0: 7fea 803d 4e65 febd 42f4 90bd b622 d1bd
000001f0: 7cdf 183e 8e3d f03d dfab 663c 578b 813d
00000200: ca65 ef3d 94c5 103e 39ad b53d 0e98 69bd
00000210: 9f92 a53d 1575 6d3d e886 b9bd b7db c2bd
00000220: 1de0 963d eb99 983c 0a7e 50bd c894 83bc
00000230: df7e 41bd 990f a3bd e789 b33d d81d 943b
00000240: 6802 513d f2d1 dc3c e4da 763d 11d8 01be
00000250: 148f 8ebd 7a4c a03b 134d 66bc 308b ecbd
00000260: 83f7 093e 3194 163e 6ec9 27bd d0c6 403c
00000270: f590 86bc df1f d23d df14 8fbd 1946 93bd
00000280: f706 733d 991a 183d 9f3a f73d ef7d dcbc
00000290: 7204 0bbe 9672 623d 9132 d4bc bcc1 3fbb
000002a0: 454a 573d 188e 8fbd b70c 403d be8f 02bd
000002b0: 2bb5 a33d 6f96 29be 770a c7bb 4279 35bd
000002c0: 8af3 01be 4c16 0e3e 7225 1b3d be82 903d
000002d0: 53a2 6abd e32f 27be 55e7 d83c d379 35bd
000002e0: 3365 3abe 647d 5b3d 0147 c73d 7bb5 d93d
000002f0: fb34 9bbc 101a b33d 93eb 82bd c0db f03c
00000300: 3935 d6bb 36c9 0abe e4a1 113e 7337 50be
00000310: 8073 743d 6220 983c 8dd4 1d3e de15 7abd
00000320: c603 563d c3e4 fd3d 4797 f2bd bbe8 24bc
00000330: 31a6 a53d 4593 e8bb b1d2 143d 23e2 91bd
00000340: 1388 373e cf42 7bbd f8d9 2cbe aef6 01be
00000350: 4347 8e3c 3c9c e03d 4b7d d2bd 1e73 d6bd
00000360: 3434 423e 945e fcbd d9f8 c5bd e4b6 2f3e
00000370: c446 d3bd 16e0 a03d b7c0 15be 0446 31be
00000380: 5fc7 0cbd 5e51 08be 3fe2 bdbd b395 9f3c
00000390: 9d09 b13c 63be 613c e26f c23d ba3a 373d
000003a0: 8521 993c 2dd7 edbc bf40 d03d ff43 06bd
000003b0: b091 82bd 6084 b4bd 7b1e d2bd 147f d6bd
000003c0: 8371 f63d 2535 a93d e79b afbd 9ca6 4dbe
000003d0: 15be 043e 8200 133b 58b7 e2bd f367 d33d
000003e0: d0e9 9a3d e794 97bd 9d94 a23d d440 b0bd
000003f0: f5c5 e5bd e8ae 83bd f623 c53c 7cae 05be
0.11243946 -0.1344276 -0.07084527 0.0048310785 -0.13464953 0.12753962 0.10760844 0.078894354
-0.1796886 -0.14255142 -0.12653156 0.14977351 0.16686217 0.0060710027 -0.1502848 0.17107943
-0.10640749 0.11581882 0.17824592 0.011140672 -0.15772226 -0.17658384 -0.121766135 0.13968708
0.09510391 -0.16824816 -0.1720154 -0.10141157 -0.07230043 -0.072998375 0.2017462 0.08549199
0.026970303 -0.059038762 -0.13356088 0.011119779 -0.09413797 0.08734445 0.01163505 -0.013304409
0.084209464 -0.22566012 -0.022253763 -0.15461403 0.13402547 0.02229671 -0.04719657 -0.12254778
0.08100989 -0.07197447 0.12084939 0.06729097 -0.10606476 -0.13398476 0.10632901 0.180703
-0.08352822 -0.04670788 -0.101970926 0.08168382 0.12401483 -0.17996156 0.04280691 -0.1443839
0.023554623 0.10962756 -0.13399607 0.039594 -0.016317034 0.11659727 -0.120077334 0.077940516
0.09188696 0.13983914 -0.010373658 -0.05075599 0.012223978 -0.023152478 -0.08611134 -0.0887482
-0.15685272 -0.13852327 0.107736245 -0.044997692 0.15255852 0.15985802 -0.018834488 -0.023881664
0.09329888 0.12289899 -0.050382588 -0.008967699 -0.043545198 -0.027987156 0.116448276 0.106707685
0.049619865 0.057934318 -0.14821158 -0.109269984 0.080880366 0.028948335 0.06363368 -0.17984402
-0.07429374 -0.01874978 0.120755844 -0.14428313 0.1388887 0.06831546 0.09810609 0.1229324
-0.13685793 -0.06722034 -0.11205431 0.028171359 -0.08486064 -0.08844679 -0.03416611 0.05028287
0.062947266 -0.12421666 -0.070778385 -0.10211699 0.14929003 0.117304906 0.014079063 0.06325405
0.116893366 0.1413787 0.0887093 -0.057029776 0.080846064 0.057972986 -0.090589345 -0.095145635
0.07366965 0.018628081 -0.05090145 -0.016062155 -0.047240134 -0.079619594 0.08766537 0.004520159
0.051027685 0.026955578 0.060267344 -0.12680079 -0.06960884 0.004891929 -0.014056462 -0.115499854
0.13473324 0.14704968 -0.040963583 0.011766151 -0.016426543 0.10259985 -0.06986403 -0.071911044
0.059332814 0.03713474 0.12071728 -0.026915519 -0.13575915 0.05528506 -0.025903018 -0.0029259762
0.052561063 -0.07009524 0.046887126 -0.031875364 0.079935394 -0.16561292 -0.0060742456 -0.044305094
-0.12690559 0.13875693 0.037877508 0.07056187 -0.05728371 -0.16326861 0.026477495 -0.044305634
-0.18202667 0.05358638 0.0973034 0.10630318 -0.018946161 0.087452054 -0.063925885 0.02940166
-0.0065371064 -0.13553318 0.14221913 -0.20333652 0.059680462 0.018570129 0.15413113 -0.06105601
0.052249692 0.123971485 -0.1184526 -0.010065253 0.08088339 -0.007097634 0.036333743 -0.0712321
0.17923002 -0.06134301 -0.16880023 -0.12691757 0.017367965 0.10967299 -0.10277804 -0.104711756
0.18965226 -0.12322727 -0.096666045 0.17159611 -0.10316232 0.07855241 -0.14624296 -0.17311865
-0.034369823 -0.13312289 -0.09271669 0.019480562 0.02161103 0.013778302 0.09493996 0.04473374
0.018692741 -0.029033268 0.10168599 -0.03277969 -0.06375444 -0.08814311 -0.1025972 -0.10473457
0.120333694 0.0826209 -0.08574658 -0.20083088 0.12963136 0.0022430723 -0.11070126 0.10322561
0.075641274 -0.07401448 0.07938502 -0.08606115 -0.11219398 -0.06429845 0.024065 -0.13054842

arith.constant2 f4 [128, 12]
00000000: 1009 84be 36b2 8f3c 2b3a 103e fdcf ad3a
00000010: 2dd9 40be ac55 3d3d b9a9 98bc db14 4ebd
00000020: 8879 093e b3ca b83c 8352 ccbd 89b8 b8bc
00000030: 168d 2dbe 2915 0c3e 76cf 863d b20b 7ebd
00000040: 030e 39be 0892 7b3d 0f0b 393e 9640 fd3d
00000050: 54fc d63d a742 87bc 2f96 4f3e 77b3 59bd
00000060: 9de1 623e 65e1 d1bd 186b 8e3d 7e76 123c
00000070: cc13 0e3e d967 cdbd 2dc3 19be 00fd 43be
00000080: 4efb 3f3c 44c9 ca3d 9c3b aebc 8d6a 2abe
00000090: e7e6 2d3e 399c 70bd dfb4 ec3d 1fee b5bc
000000a0: b668 6bbe 21c9 cbbd 0955 823d 9171 fe3d
000000b0: f672 f83d e089 f23d 6125 af3d 6876 383e
000000c0: de23 95bd 0d0c 293e 456f cebd bf09 da3d
000000d0: 0e00 a5bd 6375 413e 5d00 b03c bcd0 14bd
000000e0: 3ad0 91bd 5d66 42bd 8184 3a3e 5e67 483e
000000f0: cebe 133d b29b 4cbd 0873 353e 0592 eb3d
00000100: 98b6 063e 3f1f 48bd 9956 b4bd 55ae 16bc
00000110: ca19 cd3d 740f 14bd 3ee2 40bd 700e 383e
00000120: fd0b 0dbe cb2c 1a3e 6f08 99bd b2d6 5e3d
00000130: 9b6e 3bbd 828a ccbd e244 2c3e ba1a f43d
00000140: f5ea 6f3d cf13 fcbd 0477 abbd 8a17 de3d
00000150: 9644 3bbe c065 113e 5131 dd3d 13d5 1dbe
00000160: e9db 73bd d760 093e fbdd 6abe eb3e f63d
00000170: e02e 873b 9851 1a3e a8f7 12be 2ad5 6abd
00000180: b480 cdbd d1ef 5e3e 56fb 4b3d 9314 853d
00000190: 1cda 9d3c 917f a93d 5995 413d 6e3a 913d
000001a0: 01c0 323e 1e17 5b3e f478 1ebb 86d6 d4bd
000001b0: 8faa 573d 6880 2f3e 10de b1bd 1ed2 63bd
000001c0: f232 fa3d dcb4 82bd cb01 7b3e 0c3d 9c3d
000001d0: f6d0 0c3e 61fe 6f3d 16e0 1ebe 5630 a73c
000001e0: 4575 163e a13f 84bd 8132 f03d 7c1e 633d
000001f0: bf06 2bbe aac6 3a3e 84ea 183e c057 21be
00000200: b29c b13d 9de9 443e 314e 23bd 6a81 f73d
00000210: 4d4d a8bd 3232 473e 6097 093e 19d9 41be
00000220: 293e cdbd 25ee 21bd 6e8e 81be 704d 36bc
00000230: 3f0a 34bd db27 ce3b 7870 07bd b3bc 183e
00000240: d0e1 51be d668 45be 2361 3e3e 51a5 04be
00000250: d642 1f3e d7c2 08bd 40d3 973b 52d5 14be
00000260: c9e7 853d c834 0abe c1a7 05be da96 123e
00000270: 2c97 3fbe bdf0 373e 4e1b fb3d 69a8 ee3d
00000280: e24b 323e 02d2 4e3e c907 16be a716 0ebe
00000290: bb44 4a3d 5e7f 06be 4c2a 423e 4c09 86be
000002a0: 1b35 33be 2d96 9d3d 51dc 44bb e666 98bd
000002b0: 5a2f 57bd 87ca d7bd 60ec f13b 6cbc eb3d
000002c0: a9a8 1bbd 1ae8 273e 3ebd 3dbc dff2 213e
000002d0: df32 163e de70 53be f33e e93c b5cb 9cbc
000002e0: 94f9 a73a f999 f9bd e4cc 903d 4f90 9f3c
000002f0: 0764 2abd f4e4 1c3e 8195 1fbe adaf bf3d
00000300: 3336 1cbd e7f3 c23d 4279 11be 8b8c b2ba
00000310: f853 ec3c c7e1 04be cf9f 233e 8b61 d23d
00000320: 4e56 003b 05d0 05bd 77d5 48be a383 efbd
00000330: f95b fd3c 80ee a0bd 0910 d7bd 0cb8 173e
00000340: 801b 42be 38a0 ef3d d0dc 643e 80fe 083c
00000350: f85c 01bd 0f45 1e3d 13c3 43be d3ed 24be
00000360: 690f 67be 6a2c 68bd c51a f63d 6338 26be
00000370: 576a dcbd 83b2 febd 12a9 dbbd 23f3 f93d
00000380: ac27 65be 2d8e 823d 4735 343d 2d71 7a3e
00000390: c402 523e 3f38 11be b7f6 35ba ba05 0ebe
000003a0: 067f eb3d f2b0 37be 03d8 283e f724 663d
000003b0: eb9f 04be 7dae b2bd 41c3 b6bd af9c b73d
000003c0: f4f3 ccbd c214 0b3d 9555 813d 9ec6 1fbc
000003d0: 1d45 babc 7007 c93c 202c f6bc 96a8 303e
000003e0: 7271 94bd c33f 033e c52f 3dbe c4e2 c63d
000003f0: 1613 193e 9179 003e 8030 64be 4f07 9fbd
-0.25788164 0.017541032 0.1408469 0.0013260838 -0.18832846 0.04622428 -0.018635618 -0.050312858
0.13425267 0.022557592 -0.09976675 -0.02254893 -0.16948351 0.13679947 0.06582539 -0.062022872
-0.18071751 0.061418563 0.18070625 0.123658344 0.104973465 -0.016511275 0.20272134 -0.053149667
0.22156377 -0.10248069 0.0695402 0.008939384 0.1387474 -0.10029573 -0.1501586 -0.1913948
0.011717631 0.099016696 -0.021268658 -0.16642208 0.16982614 -0.058742736 0.11557936 -0.022208272
-0.22989163 -0.09950472 0.063638754 0.12424005 0.12131302 0.11842704 0.08552051 0.18013918
-0.07282232 0.16508503 -0.10079817 0.1064639 -0.08056651 0.18892436 0.021484548 -0.036331877
-0.07119794 -0.047460902 0.18214609 0.19570681 0.036070637 -0.04995317 0.17719662 0.115024604
0.13155591 -0.048857924 -0.0880558 -0.009196837 0.100146845 -0.03614755 -0.04709076 0.17974257
-0.13774104 0.1505615 -0.07472312 0.05440397 -0.04575978 -0.09987356 0.16823152 0.1191916
0.05857368 -0.12308466 -0.0837231 0.108443335 -0.18287882 0.14198971 0.10800422 -0.15413313
-0.059535895 0.13415848 -0.22936241 0.120237194 0.004125461 0.15070188 -0.14352286 -0.057332195
-0.10034314 0.2177117 0.04980024 0.06498065 0.019269042 0.082762845 0.04726157 0.07091223
0.17456056 0.21395537 -0.002418098 -0.103924796 0.05265289 0.17138827 -0.08684933 -0.055620305
0.12216748 -0.063821524 0.24512403 0.07628831 0.13751587 0.058592204 -0.1551517 0.02040879
0.14693172 -0.06457449 0.11728383 0.055448994 -0.16701792 0.18239847 0.1493321 -0.1575613
0.086724654 0.19229741 -0.03986949 0.12085231 -0.08217869 0.19452742 0.13436651 -0.18930472
-0.10021622 -0.039533753 -0.25303978 -0.011126861 -0.043955084 0.0062913722 -0.033066243 0.14915733
-0.20496297 -0.19278273 0.18591742 -0.12953688 0.1555284 -0.03338894 0.0046333373 -0.145345
0.0653835 -0.13496697 -0.13052274 0.14315358 -0.18710011 0.17962928 0.12261067 0.116532154
0.1741176 0.20197299 -0.14651407 -0.13875829 0.049381953 -0.13134524 0.18961447 -0.26178968
-0.17500727 0.076946594 -0.0030038545 -0.07441501 -0.052535392 -0.10536676 0.0073829144 0.11510548
-0.038002644 0.16397133 -0.011580763 0.15815304 0.14667843 -0.20648524 0.0284724 -0.019140104
0.0012815469 -0.12187571 0.0707033 0.019477991 -0.0415993 0.15321714 -0.15584375 0.09359679
-0.038137626 0.09519177 -0.14206412 -0.0013622207 0.028848633 -0.12976752 0.15978931 0.10272511
0.0019582692 -0.032669086 -0.1961268 -0.116950296 0.030927645 -0.0785799 -0.10501105 0.14816302
-0.18955803 0.11700481 0.22349858 0.008361459 -0.031582803 0.03864008 -0.19117384 -0.16106348
-0.22564472 -0.05668298 0.12016825 -0.16232447 -0.1076247 -0.12436392 -0.10725607 0.12204578
-0.22378415 0.06374774 0.04399612 0.24457236 0.20508868 -0.14181612 -0.00069413654 -0.13869372
0.11498837 -0.17938593 0.16488652 0.056187596 -0.12951629 -0.08724687 -0.089239605 0.08965432
-0.10007468 0.033955343 0.063151516 -0.009751944 -0.022738034 0.02453968 -0.030050337 0.1725181
-0.072482005 0.12817292 -0.18475254 0.09711221 0.14948687 0.12546374 -0.22284126 -0.07765066

arith.constant29 f4 [64]
00000000: 30a6 0fbd b65d 0cbd a261 ec3b 1c61 103d
00000010: 41f2 a1bc 8020 313c e086 be37 8aad d4bd
00000020: a546 9fbc a164 a3bc fddd 48bc 1562 b43d
00000030: bd67 f3bb 689a 2c3c d7ac 8bbd 33f9 05bd
00000040: b976 953d d74b 163d 1038 50bc da47 1a3a
00000050: f29d 383c 30f3 a23c 5506 42bd ac82 d0bc
00000060: 0089 85bd 0428 85bd 7a87 a23d aad1 8c3c
00000070: 82c7 09bd fe15 323c 3eb4 06bd 381d cbbb
00000080: d45a a73d f20f a73d 57f3 a2bb 18a4 92ba
00000090: b5a2 2abd 1b6b 39bd 4141 463a 4ba7 583c
000000a0: 018d 8d3c 6531 ba3c 3de8 813b 1c77 453d
000000b0: 3a9b 663c d05e 913d db28 e53c 1f19 8b3d
000000c0: b794 57bc bc0c 5c3c 0137 61bc 716b a83d
000000d0: 840a f3bc 203e d7bc 537b 3dbd 7c72 b93d
000000e0: 26fc ee3b 1e42 9fbd c9c8 823d 666e 8a3d
000000f0: 13df a53b 739b 923d 076f 173d ac74 e33d
-0.035070598 -0.034269057 0.007213787 0.03524886 -0.019768836 0.010810971 2.2712571e-05 -0.103846624
-0.019442866 -0.019945445 -0.012259957 0.0880777 -0.007428138 0.01053486 -0.06820076 -0.032708358
0.07298035 0.03669342 -0.012708679 0.00058853405 0.011268126 0.019891351 -0.04736932 -0.025452934
-0.06520271 -0.06501773 0.07935996 0.01718982 -0.03363753 0.010869501 -0.032886736 -0.0061985515
0.08171621 0.08157338 -0.004972856 -0.001118782 -0.041659076 -0.04526816 0.0007562824 0.0132234795
0.01727915 0.022728631 0.0039644525 0.048209295 0.014075095 0.07098162 0.027973583 0.06791901
-0.013158015 0.0134307705 -0.013746024 0.08223618 -0.0296681 -0.02627474 -0.04626019 0.09055039
0.007293242 -0.07776283 0.06385953 0.06759338 0.005061993 0.07158556 0.03697112 0.11106238

arith.constant30 f4 [128]
00000000: 2547 43bd e567 fe3c 64db 8f3d d215 f0bc
00000010: 4a0a 293d 937d 2bbd aded 8fbc 4a58 eabd
00000020: 5a74 54bc 31e8 f8ba 0462 1abd 3e25 8c3c
00000030: cfb8 18bd a4e5 47bc c72a 9cbd 5b97 eabc
00000040: b9d7 af3b e4d5 c63b a171 88bb be2b 833d
00000050: 78bb 093d b8af 2fbd ddf5 a2bd 7652 89bc
00000060: e243 e73c e363 a6bd cfc0 18bc 2efa 66bd
00000070: 282f 7db9 1e0b 3f3c 60e8 213d fc5a 1dbd
00000080: 099c 87bd eabb 5b3c dd49 04bb eaec 82bd
00000090: 74ec 6c3c eb3b bebd ca92 da3c 6ce5 9c3c
000000a0: eaee 5b3d ffbf 42bd dd56 18bd 30f5 8b3d
000000b0: 7b60 c5bd 7476 f73c 0d2b 6e3c c350 4c3d
000000c0: 5a3e babb 420c 143c 5035 453b d6e5 abbd
000000d0: b45f 0ebd 1b95 a6bc d952 a9bd db37 8fbc
000000e0: 9023 efbc ea57 dcbb 68b8 b03c 1cc6 c8bc
000000f0: 2801 c8bd 6eaf 15bd 270c 153e 8467 49bc
00000100: 9a2c 3e3c 4584 42bd 31af c5bd 92d8 dc3c
00000110: c19a 18bd 1bb0 083b 2b2e 073d 5d15 34bd
00000120: 51f6 b0bd e8c4 17bd ba4d b23b b8c6 debd
00000130: 5267 d7bd 4d98 acbc 5cfb 01bd caf5 e2bd
00000140: a166 5dbd f1c6 aebd 3218 e2bc a05a bebc
00000150: dde5 913d f161 ee3c f763 cfbb c96a 083c
00000160: 96ac 99bd e410 79bc 2d71 26bd a7bd 11bd
00000170: 9ade 94bd 7315 85bc f956 a6bc 01a2 a4bd
00000180: bb6f 173c 0c45 933d de5c 00bd 032c e6bc
00000190: 5d7c 603d bcfe bbbd 7ccc 153c f2df 3a3d
000001a0: 0e57 92bd 98cc 8bbc a8a2 dd3d bc17 95bd
000001b0: bbfd 10bd b8ea ef3b 3106 86bc e768 51bd
000001c0: 3d3c 0ebd 4721 423d bf2c 2c3c 323c a3bb
000001d0: e85c 643d 98be 98bd 3a0f 933d 7bbc dfbd
000001e0: c78e 0ebd e040 4dbd a9c2 1c3d c8a9 88bc
000001f0: d0b8 8a3c 1282 833d 66c1 b93d 15cc b43c
-0.04767527 0.0310554 0.07024267 -0.02930728 0.041269578 -0.041867804 -0.017569387 -0.11442621
-0.0129671935 -0.0018990097 -0.03769113 0.017107602 -0.037285622 -0.012200747 -0.07625347 -0.028636625
0.0053662923 0.006067978 -0.0041639362 0.064048275 0.03362605 -0.042892188 -0.07957051 -0.016762953
0.028230611 -0.08124521 -0.009323313 -0.056390934 -0.00024145527 0.011660365 0.03952825 -0.038416848
-0.06621558 0.013411501 -0.0020185628 -0.06392844 0.014460672 -0.09288772 0.026681323 0.019152366
0.053694643 -0.047546383 -0.037192214 0.06833875 -0.09637543 0.03020785 0.014536631 0.049881708
-0.0056837024 0.009036126 0.0030091591 -0.08393447 -0.03475924 -0.02033477 -0.08267755 -0.017482689
-0.029191762 -0.0067243474 0.021572307 -0.024508528 -0.097658455 -0.036544256 0.14555417 -0.012292746
0.0116073135 -0.047489423 -0.09652556 0.026958738 -0.03725696 0.002085692 0.033003014 -0.043965686
-0.08640731 -0.03705302 0.0054413946 -0.10877746 -0.10517754 -0.021068716 -0.031733856 -0.11082037
-0.054052953 -0.08534039 -0.027599428 -0.023236573 0.07123921 0.029099436 -0.0063290554 0.008326241
-0.07503621 -0.015201781 -0.040635277 -0.035581257 -0.072690204 -0.01624558 -0.020305144 -0.08038712
0.009242947 0.07190904 -0.031338565 -0.028097158 0.054806102 -0.09179446 0.009142991 0.045623727
-0.071455106 -0.017065331 0.1082204 -0.072799176 -0.035398226 0.007321682 -0.016360374 -0.051125433
-0.034725416 0.047395017 0.010508715 -0.004981541 0.055752665 -0.07458228 0.071806386 -0.10924622
-0.03480413 -0.050110698 0.03827158 -0.01668252 0.016933829 0.06421293 0.09070091 0.02206997
